gnn_bottleneck_model_20250920_154416.pth (torch, 73153 bytes, 20 tensors)

input_proj.weight f4 [64, 5]
0	0xbd81bee7	-0.0633524
1	0xbed2f666	-0.41203612
2	0xbe3d297f	-0.18472861
3	0x3e3d8c60	0.1851058
4	0x3e976611	0.29570058
5	0x3e61a79f	0.22036599
6	0xbe81666a	-0.25273448
7	0x3e370ba8	0.1787554
8	0xbebbb85e	-0.36664099
9	0xbe82bac5	-0.2553312
10	0x394a9fb4	0.00019323715
11	0x3e70b899	0.23507918
12	0xbedfc5f1	-0.43705705
13	0x3e555e9f	0.20836876
14	0xbd565bda	-0.05233369
15	0x3edd6cfd	0.43247214
16	0x3eb767b2	0.358213
17	0xbd922000	-0.0713501
18	0xbddc9765	-0.10771064
19	0xbe814462	-0.25247484
20	0x3d801a9f	0.062550776
21	0xbd75a9a4	-0.059976235
22	0xbdd8166d	-0.105511524
23	0x3ebb04a0	0.36526966
24	0xbec75333	-0.38930663
25	0xbe656884	-0.22403151
26	0xbd97a373	-0.07404222
27	0xbe1479de	-0.14499614
28	0xbee593f1	-0.44839433
29	0x3ee2c05f	0.44287392
30	0xbed8a7b5	-0.4231545
31	0x3eb33910	0.35004473
32	0x3e453f79	0.19262494
33	0x3d820a64	0.06349638
34	0xbddaa1b6	-0.10675375
35	0xbe2f2353	-0.17103319
36	0x3e5743ce	0.21021959
37	0x3e50bb58	0.20383966
38	0xbef32191	-0.47486547
39	0xbe95ffc8	-0.29296708
40	0xbedfae11	-0.4368749
41	0x3d346a87	0.044046905
42	0x3d9f8864	0.07789686
43	0x3ec4272a	0.3831113
44	0x3ed09352	0.40737396
45	0x3e1a50bc	0.1506986
46	0xbea6c1dd	-0.3256978
47	0x3ed9e5d0	0.42558146
48	0xbdce854d	-0.10084019
49	0x3e6966fe	0.22793195
50	0xbe597f42	-0.21239951
51	0xbe984a2a	-0.29744083
52	0x3ceef839	0.029171096
53	0x3e85e1fc	0.26148975
54	0x3e55f685	0.20894821
55	0x3e1d7329	0.15375961
56	0xbe67a114	-0.2262004
57	0xbea2c5aa	-0.3179143
58	0x3e244ddb	0.16045325
59	0xbea692b7	-0.3253381
60	0xbea2742b	-0.31729254
61	0xbec40d14	-0.38291228
62	0x3d020215	0.031740267
63	0x3e235c5f	0.15953206
64	0xbe880dad	-0.26572934
65	0xbe991573	-0.29899177
66	0xbed02d04	-0.40659344
67	0xbea2ef86	-0.31823367
68	0x3db7d9b0	0.089770675
69	0xbdf2a95c	-0.11848709
70	0xbeda7700	-0.42668915
71	0xbeb877df	-0.36028954
72	0xbd99b788	-0.07505709
73	0x3daf610e	0.085634336
74	0x3ea3e92c	0.32013834
75	0x3de9d969	0.11418421
76	0xbe7217ba	-0.23641863
77	0x3e404bd4	0.18778926
78	0xbea231b8	-0.31678557
79	0x3da03de6	0.07824306
80	0xbeaabe72	-0.33348423
81	0x3e581029	0.21099915
82	0x3e05fc43	0.13084511
83	0xbec9e25b	-0.39430508
84	0xbe96c530	-0.29447317
85	0x3ea99e72	0.33128697
86	0xbec8081a	-0.3906868
87	0x3eb6d3ba	0.3570841
88	0x3dc77378	0.09738821
89	0xbdc0fe15	-0.09423462
90	0xbedccfd5	-0.43127313
91	0xbec56209	-0.38551357
92	0x3ec3cd18	0.38242412
93	0xbe85d4f2	-0.26139027
94	0xbc99507b	-0.018715134
95	0x3e81e5c0	0.25370598
96	0xbe8a083e	-0.26959413
97	0x3e3717b5	0.17880137
98	0xbe32f47d	-0.17476077
99	0x3e78205d	0.24231096
100	0x3d252589	0.040319
101	0xbea4a3a9	-0.32156113
102	0xbdb9dc47	-0.09075218
103	0x3ea9be42	0.33152968
104	0x3dc13a1d	0.09434912
105	0x3eb36650	0.35038996
106	0xbe5d9803	-0.21640019
107	0xbcd62e04	-0.026144989
108	0xbdb1e4de	-0.08686231
109	0xbeca8928	-0.39557767
110	0xbe36c48a	-0.17848411
111	0x3e8e2a80	0.277668
112	0x3e40b202	0.18817905
113	0x3ec2b348	0.38027406
114	0xbdd9ed0a	-0.10640915
115	0xbeaad6ca	-0.33366996
116	0xbdc6106c	-0.09671101
117	0x3c20e4b6	0.009820154
118	0x3e5bf520	0.21480227
119	0x3e66a291	0.22522952
120	0xbe812a31	-0.25227502
121	0x3e8f3509	0.2797015
122	0xbea96208	-0.33082604
123	0x3bb52a98	0.005528759
124	0x3ceb79fe	0.028744694
125	0xbd1f59af	-0.03890389
126	0xbdf7332d	-0.12070308
127	0x3ea81f17	0.3283622
128	0x3e8df727	0.27727625
129	0x3ed3465b	0.41264614
130	0xbe6fc159	-0.234136
131	0x3e8faf11	0.28063253
132	0x3ea08022	0.31347758
133	0x3e97eba8	0.2967198
134	0xbe6e8e4d	-0.23296471
135	0xbec6cbf7	-0.38827488
136	0x3e6d5903	0.23178487
137	0x3eb16499	0.34647062
138	0xbe081094	-0.13287574
139	0xbe96523c	-0.29359615
140	0xbecccf4f	-0.40001914
141	0xbe820c60	-0.25400066
142	0x3edbd49d	0.4293565
143	0x3e3f0df1	0.18657662
144	0xbd5806c3	-0.052740823
145	0xbd69e296	-0.057100855
146	0x3e51a54b	0.2047321
147	0x3e5ff517	0.21870838
148	0xbd9cc6c7	-0.07655101
149	0xbde5f2d2	-0.11227955
150	0xbdd567fa	-0.104202226
151	0x3e8a73f4	0.2704159
152	0xbd6bb205	-0.05754282
153	0x3e8e5b97	0.27804253
154	0x3c702858	0.014658056
155	0xbdafe926	-0.085893914
156	0x3e6d3353	0.2316411
157	0xbebe668d	-0.37187615
158	0xbca2bf12	-0.0198665
159	0xbea0d747	-0.31414244
160	0xbea6ae6b	-0.32554945
161	0xbee3d11b	-0.44495472
162	0xbe20e1a9	-0.15711083
163	0x3d8e79d9	0.06956834
164	0x3e174f0d	0.14776249
165	0x3e699016	0.2280887
166	0x3d8fadee	0.07015596
167	0xbd0a1dfa	-0.033719994
168	0xbd314131	-0.043275062
169	0x397f19dd	0.0002432833
170	0xbd98e51e	-0.07465576
171	0xbcbd042c	-0.023073278
172	0xbe287e47	-0.16454421
173	0x3ec87c85	0.391575
174	0x3eaf1da5	0.34202304
175	0x3eb97d32	0.3622833
176	0xbed1ad6f	-0.40952632
177	0xbdf29961	-0.11845661
178	0x3dd31f0e	0.103086576
179	0xbd36cf3a	-0.04463122
180	0xbe87973f	-0.2648258
181	0xbc24dfff	-0.01006317
182	0xbeac9003	-0.33703622
183	0x3e9b04a1	0.3027697
184	0xbedbb50c	-0.42911565
185	0xbe8a50e5	-0.27014843
186	0xbea3d49d	-0.3199815
187	0xbd4fb540	-0.050709963
188	0xbd5d7216	-0.05406388
189	0x3ee02a54	0.43782294
190	0x3b67906c	0.0035333885
191	0x3e9705bc	0.29496562
192	0xbeec8eed	-0.46202794
193	0xbecfeeaf	-0.4061179
194	0xbe5fa61a	-0.21840706
195	0xbebec675	-0.37260786
196	0xbe61ace2	-0.22038606
197	0x3e786932	0.24258879
198	0x3ebcd9d5	0.36884943
199	0xbd663cd9	-0.056210373
200	0xbe9597e4	-0.29217446
201	0x3c5c2002	0.013435366
202	0x3e4a1e24	0.1973806
203	0xbe3f24fa	-0.18666449
204	0xbe9779bc	-0.29585063
205	0xbed0da2e	-0.40791458
206	0x3ed2d0b1	0.41174844
207	0x3d29913b	0.04139827
208	0xbe825b02	-0.25460058
209	0x3e6e05ab	0.2324435
210	0xbe63aab7	-0.22233091
211	0x3e8392d2	0.25697953
212	0x3e120b94	0.14262229
213	0xbde3c61c	-0.11121771
214	0x3e2770d6	0.16351637
215	0xbe3424be	-0.17592141
216	0x3ece23e6	0.40261763
217	0xbeb8cf1d	-0.36095515
218	0xbe274f4d	-0.16338845
219	0xbe9caae5	-0.30599132
220	0x3ed4f023	0.4158946
221	0xbe042e3e	-0.12908265
222	0x3dc0a88d	0.094071485
223	0x3ea38000	0.31933594
224	0xbe962480	-0.29324722
225	0xbeae5b03	-0.3405381
226	0xbe32bc2e	-0.17454597
227	0xbe1c30c5	-0.15252979
228	0x3e840740	0.2578678
229	0xbd00a439	-0.031406615
230	0xbe63db60	-0.22251654
231	0x3dddc759	0.10829038
232	0x3df40149	0.119143076
233	0x3eb07e5f	0.34471413
234	0xbd811620	-0.06303048
235	0x3eb19795	0.3468596
236	0xbd9c4b64	-0.07631567
237	0xbeae7f66	-0.34081572
238	0x3eb26dc9	0.34849384
239	0xbe4f5e2a	-0.20250764
240	0xbcbfd9c5	-0.02341927
241	0x3ea0690d	0.31330147
242	0xbef20f38	-0.47277236
243	0xbddeb802	-0.108749405
244	0xbe033bf4	-0.12815839
245	0xbd5f020b	-0.054445308
246	0x3bbeb808	0.005820278
247	0x3da76339	0.08173222
248	0x3e447a7b	0.19187348
249	0x3e8ac1f6	0.27101105
250	0x3de1c304	0.110235244
251	0x3db5ffb4	0.08886662
252	0x3e71c0c7	0.23608695
253	0x3afa1675	0.0019080179
254	0x3ddbdbd9	0.10735292
255	0xbed34321	-0.41262153

input_proj.bias f4 [64]
0	0xbccdd4e1	-0.025125923
1	0xbec0167b	-0.3751715
2	0xbdbea4bb	-0.093087636
3	0xbe38d4ff	-0.18050002
4	0xbe8b6224	-0.27223313
5	0x3c60bb1a	0.0137164835
6	0xbdcbde6e	-0.099545345
7	0x3e08cc26	0.13359126
8	0x3ebdf898	0.37103724
9	0x3dd0f853	0.10203614
10	0xbdcc4700	-0.0997448
11	0xbeb54613	-0.35405025
12	0x3dc59eeb	0.09649452
13	0x3dba4c79	0.09096617
14	0xbe5c0bf4	-0.21488935
15	0x3dbdf816	0.09275834
16	0x3e53ed3f	0.20695971
17	0x3e9c9285	0.30580536
18	0xbe3cbf1a	-0.18432274
19	0x3e2b4dfe	0.1672897
20	0x3dcdd1d6	0.10049789
21	0xbe37c2a4	-0.17945343
22	0xbce43419	-0.027856873
23	0xbec936da	-0.3929966
24	0x3e40f472	0.18843248
25	0xbea1c16e	-0.31592888
26	0x3ec689f2	0.3877712
27	0x3e47ef34	0.19524843
28	0x3e13637f	0.14393423
29	0x3df029c2	0.11726715
30	0x3ed52ad4	0.41634238
31	0xbe303982	-0.17209437
32	0x3eacdcce	0.3376221
33	0xbed3b1a5	-0.4134647
34	0xbd114586	-0.035466693
35	0x3eda5736	0.42644662
36	0xbe04bb77	-0.12962137
37	0xbe8a4b57	-0.27010605
38	0x3de611dc	0.11233875
39	0xbe322ac9	-0.17399134
40	0x3ea5ed5c	0.32407653
41	0xbcdacb65	-0.026708314
42	0xbd932f1f	-0.07186722
43	0xbe35c2a5	-0.17750032
44	0x3da98c7a	0.08278747
45	0xbdcfe898	-0.101517856
46	0xbd125154	-0.03572209
47	0xbe58c3b4	-0.21168405
48	0x3e8acf9c	0.27111518
49	0x3d16bf0b	0.036803287
50	0x3d99e512	0.07514395
51	0xbe7405bd	-0.23830314
52	0x3ed2c464	0.4116546
53	0xbd8e609b	-0.0695202
54	0x3eb62368	0.35573888
55	0x3dae503f	0.085113995
56	0xbeb75eba	-0.35814458
57	0xbbf9f0c2	-0.0076275775
58	0xbbd24d4a	-0.006417905
59	0xbe411f2a	-0.18859544
60	0x3e7fbeb5	0.24975093
61	0xbe033456	-0.12812933
62	0xbe690de7	-0.2275921
63	0xbe944215	-0.28956667

mp_layers.0.lin.weight f4 [64, 64]
0	0xbdc436c7	-0.095807604
1	0xbdc8c2ca	-0.09802778
2	0xbd38f188	-0.045152217
3	0x3dee09d5	0.11622969
4	0x3d9cb614	0.07651916
5	0xbde8cc04	-0.11367038
6	0xbd3f823e	-0.046755068
7	0xbdb24b31	-0.08705748
8	0x3bc7c6a5	0.0060966783
9	0x3d1f6937	0.0389187
10	0xbdf4b9d2	-0.11949505
11	0x3dc2d595	0.09513394
12	0xbdfaaafa	-0.122396424
13	0xbd4eb9a2	-0.050470002
14	0xbd354b7d	-0.044261444
15	0xbd5857df	-0.052818175
16	0xbde89cdf	-0.11358046
17	0xbd77a9ab	-0.060464542
18	0xbdf22edd	-0.11825345
19	0xbd1d276c	-0.038367674
20	0x3d56603f	0.05233788
21	0x3e0f2029	0.13977112
22	0x3d8df45b	0.06931373
23	0x3de5ada2	0.112147585
24	0xbc6b1bca	-0.014349887
25	0x3d0c496c	0.034249708
26	0x3b3b317b	0.0028563428
27	0xbdaed533	-0.08536758
28	0x3d1896cd	0.03725319
29	0x3db57e88	0.088620245
30	0x3d3dacf3	0.046307515
31	0x3c712b4c	0.014719795
32	0x3dfa4529	0.122202225
33	0xbde657b2	-0.11247195
34	0xbe0b419f	-0.13599251
35	0x3d32dc9d	0.043667424
36	0x3dbe7fa2	0.09301688
37	0xbdc81a30	-0.0977062
38	0x3bf44446	0.007454428
39	0xbca61db9	-0.020277845
40	0xbbfae5a0	-0.007656768
41	0x3d54de8f	0.05197006
42	0x3d4d317d	0.050096024
43	0xbd81ee30	-0.06344259
44	0x3d2842d5	0.04107936
45	0xbda397bc	-0.079879254
46	0x3dbd8c9d	0.092553355
47	0xbddfb959	-0.10924024
48	0xbd8e86ee	-0.069593295
49	0x3d66163e	0.056173556
50	0x3c9889bb	0.018620363
51	0x3cba2df6	0.022726994
52	0x3dc55d2a	0.0963691
53	0x3d9d88fa	0.07692142
54	0x3b7b9bed	0.00383925
55	0xbdad453d	-0.08460472
56	0x3d321673	0.04347844
57	0xbd0812b9	-0.03322098
58	0xbd85294e	-0.06502019
59	0xbddc71ac	-0.10763869
60	0xbda8bbd6	-0.08238952
61	0xbde4df5e	-0.111754164
62	0x3d1eee69	0.038801584
63	0x3b5eb344	0.0033981362
64	0xbcdc214c	-0.026871346
65	0x3d2a3bf1	0.04156107
66	0xbd1161d9	-0.035493705
67	0xbc4fda64	-0.012686346
68	0x3dffa5a3	0.124827646
69	0x3d5ea2ac	0.054354355
70	0xbc9e45aa	-0.019320328
71	0x3bab1c73	0.0052218973
72	0xbd070f49	-0.03297356
73	0xbcc132d2	-0.023583803
74	0x3d374331	0.044741813
75	0xbdf2be23	-0.11852672
76	0xbd383279	-0.04497001
77	0x3d4f32c7	0.050585534
78	0xbb1c059c	-0.0023807054
79	0xbc95bc76	-0.018278342
80	0xbd929a9f	-0.07158398
81	0x3c9948ca	0.018711466
82	0x3c9008c8	0.017582312
83	0x3dea39a4	0.11436775
84	0xbc631126	-0.013859069
85	0xbcbf030f	-0.023316888
86	0xbc8367b0	-0.016040653
87	0xbd540591	-0.05176312
88	0xbc23e86e	-0.010004146
89	0x3de610f9	0.11233706
90	0xbdbaaae6	-0.091146275
91	0xbd1f577b	-0.038901787
92	0xbd48b1f3	-0.04899783
93	0x3dd8e4b9	0.105905004
94	0xbdca9b8b	-0.09892949
95	0xbc872373	-0.016496396
96	0xbdc3abae	-0.0955423
97	0x3d4f374d	0.05058985
98	0x3d13f087	0.036118057
99	0xbc63c6cc	-0.013902377
100	0x3cbe606f	0.023239342
101	0x3dcef3ec	0.10105118
102	0xbdb42f21	-0.087980516
103	0xbdf8c63c	-0.12147185
104	0x3cf802d8	0.030274794
105	0x3dcf5773	0.101241015
106	0x3d17bb72	0.037043996
107	0x3d162836	0.036659442
108	0x3ded6bbd	0.11592815
109	0xbde0798d	-0.10960684
110	0x3c89341d	0.016748482
111	0x3abed708	0.0014559934
112	0x3dc7a8c6	0.09748988
113	0xbdd533e6	-0.104102895
114	0xbbed1879	-0.0072355834
115	0x3db561c0	0.08856535
116	0xbdae6939	-0.085161634
117	0x3df92c19	0.12166614
118	0x3dac88e0	0.08424544
119	0xbdac0a5c	-0.084004134
120	0x3db2e8e6	0.08735828
121	0x3c0ea13f	0.008705436
122	0x3dac3ebf	0.08410405
123	0xbdfb4101	-0.12268258
124	0x3dd56b26	0.104208276
125	0xbd959400	-0.073036194
126	0xbd0fe889	-0.035133872
127	0xbdd7bf40	-0.10534525
128	0x3d6ae9aa	0.057351746
129	0xbabfa113	-0.0014620147
130	0x3e02aa0d	0.12760182
131	0xbd802521	-0.06257082
132	0xbdc14721	-0.09437395
133	0x3db08dfc	0.08620831
134	0x3df8a7f9	0.12141413
135	0x3def8763	0.11695745
136	0xbd5aabc1	-0.053386454
137	0xbe16888b	-0.14700525
138	0xbd98bec5	-0.074582614
139	0xbdabdbe8	-0.08391553
140	0x3da1c4b6	0.07898848
141	0x3dc66652	0.09687485
142	0xbd941e8e	-0.0723239
143	0x3c807036	0.015678506
144	0xbcfaf2db	-0.03063338
145	0xbde20791	-0.110365994
146	0x3c922c4f	0.017843394
147	0xbe082ca3	-0.13298278
148	0xbe29290a	-0.16519561
149	0xbdc680dc	-0.09692547
150	0xbd7486ae	-0.059698753
151	0xbc6bf5cf	-0.014401867
152	0x3dc95b63	0.09831884
153	0x3d363cd1	0.044491593
154	0xbbdfe726	-0.006832975
155	0x3e09f9d8	0.13474214
156	0xbd91fdf7	-0.07128518
157	0xbd8caf43	-0.06869366
158	0x3d9c2f88	0.07626253
159	0x3e14439e	0.14478919
160	0x3c59e949	0.013300248
161	0x3ca55b92	0.020185266
162	0xbdda7a22	-0.10667826
163	0xbdfc791a	-0.12327786
164	0xbd36f4b5	-0.044666965
165	0x3b359bcd	0.0027711273
166	0x3e0fdf91	0.14050128
167	0x3d84b07f	0.064789765
168	0xbdf39719	-0.11894054
169	0x3d421e2c	0.047392055
170	0xbcabc6ce	-0.02096882
171	0x3dbc8f8b	0.09207066
172	0xbd12ed48	-0.03587082
173	0x3d66e386	0.056369327
174	0xbd430e92	-0.047621317
175	0xbc97d18e	-0.01853254
176	0xbccceddf	-0.02501577
177	0x3dcb5818	0.09928912
178	0xbc75fae1	-0.0150134275
179	0x3dd62a59	0.10457296
180	0x3dd509ba	0.10402246
181	0xbde13538	-0.10996479
182	0x3dec73a9	0.11545498
183	0xbd887273	-0.066624545
184	0x3d31dcf3	0.043423604
185	0xbd7a1811	-0.061058108
186	0x3d91aea8	0.07113391
187	0xbda1c99d	-0.07899783
188	0xbde40cce	-0.11135255
189	0x3e0220da	0.12707844
190	0xbdf006e8	-0.11720067
191	0xbb1224ba	-0.0022299723
192	0xbdf2b844	-0.11851552
193	0x3ce33133	0.027733421
194	0x3d5d57cc	0.054038808
195	0x3d920c61	0.07131267
196	0x3d2144f9	0.039372418
197	0x3a8ef233	0.0010905921
198	0xbd367562	-0.04454554
199	0xbd9ab461	-0.07553936
200	0xbdd3ce21	-0.1034205
201	0x3da9a882	0.082840934
202	0x3d04a9ea	0.032388605
203	0x3d6761f5	0.056489903
204	0xbdb41e54	-0.08794847
205	0xbc40499b	-0.011736299
206	0xbdb9ee62	-0.09078671
207	0xbd873def	-0.0660361
208	0xbdc0fa4f	-0.094227426
209	0xbdb648c0	-0.08900595
210	0x3d576c25	0.05259337
211	0x3c1d6a64	0.009607885
212	0xbdc1d039	-0.094635434
213	0xbcfbc6a4	-0.030734368
214	0x3d9e7cc1	0.07738639
215	0x3c0e5b80	0.0086888075
216	0x3dbf67c4	0.093459636
217	0xbd102e3e	-0.03520035
218	0xbd2a294c	-0.04154329
219	0x3cda6f4f	0.026664404
220	0x3caec8c1	0.021335961
221	0xbd286193	-0.04110868
222	0xbd06e97e	-0.03293752
223	0xbd32a2e0	-0.04361236
224	0xbd3e13bf	-0.04640555
225	0x3d9e8e16	0.077419445
226	0x3d5a3ebf	0.053282496
227	0xbc4fb373	-0.012677061
228	0x3d72ee60	0.059309363
229	0x3cb7af98	0.022422597
230	0xbc3b0c76	-0.011416545
231	0x3da115b3	0.07865467
232	0xbd9f4505	-0.07776836
233	0xbc98c988	-0.018650785
234	0xbdbac8ef	-0.09120356
235	0x3df3fab9	0.11913056
236	0xbde5263b	-0.111889325
237	0x3b8d5cc4	0.004314037
238	0xbd5817f4	-0.05275722
239	0xbd9b0226	-0.07568769
240	0xbd51bae6	-0.05120363
241	0xbdc3ba86	-0.09557061
242	0xbda2c4dc	-0.07947704
243	0x3d0b026d	0.03393786
244	0x3da124cd	0.07868347
245	0xbdcc3e3e	-0.09972809
246	0x3df98af5	0.12184707
247	0xbdca35f5	-0.09873573
248	0xbe02adb6	-0.12761578
249	0xbd5e73e6	-0.054309748
250	0xbd81dfb2	-0.063414946
251	0xbbe9fa0c	-0.0071404036
252	0xbe0ab45b	-0.13545363
253	0xbdd9b3a5	-0.106299676
254	0x3d98fc6c	0.07470021
255	0x3cbb0056	0.022827309

mp_layers.0.lin.bias f4 [64]
0	0xbdf7519c	-0.12076113
1	0xbd827be0	-0.063712835
2	0x3bc870c4	0.0061169583
3	0x3cc0e837	0.023548229
4	0xbd9eb1e0	-0.07748771
5	0xbd86c339	-0.065802045
6	0x3db3c5e2	0.087779775
7	0xbd986e60	-0.07442927
8	0xbd162865	-0.036659617
9	0x3d8b00f3	0.067872904
10	0x3dde8ecf	0.10867082
11	0x3dc4f179	0.0961637
12	0x3c19446d	0.009354693
13	0x3dd8ffed	0.10595689
14	0xbdc614ca	-0.09671934
15	0x3d18da8d	0.0373178
16	0xbd235a74	-0.039881185
17	0x3d7f1414	0.062275007
18	0x3afcffbc	0.0019302289
19	0x3dafab60	0.08577609
20	0xb8e5b47a	-0.00010953187
21	0x3d18c03b	0.0372927
22	0xbdd73687	-0.10508447
23	0x3d669196	0.056291185
24	0xbdd37b50	-0.10326254
25	0x3e0648b6	0.13113675
26	0xbade6afc	-0.001696914
27	0x3d98a1d1	0.07452739
28	0x3d0b395e	0.033990256
29	0xbddc1878	-0.107468545
30	0x3b3103e6	0.002701038
31	0x3dc6b082	0.09701635
32	0xbce63bc2	-0.028104667
33	0x3deb8fbc	0.115020245
34	0xbdc5cf33	-0.09658661
35	0x3d7475a9	0.059682522
36	0xbb011d0b	-0.001970115
37	0xbd64b9e5	-0.055841345
38	0x3dd5ef44	0.10446027
39	0x3de4823b	0.11157652
40	0x3d66eed4	0.056380108
41	0x3c951863	0.018200105
42	0x3c1f2f7e	0.009715913
43	0xbd3c785b	-0.046013217
44	0xbd82626f	-0.06366431
45	0xbc5e7401	-0.013577462
46	0x3e08c74b	0.13357274
47	0x3c278739	0.010225111
48	0x3d4a0025	0.049316544
49	0x3bd39974	0.006457502
50	0x3d915ed4	0.07098165
51	0x3d955f1b	0.072935306
52	0x3d73166e	0.059347562
53	0x3d27fb31	0.04101104
54	0xbd1d74fb	-0.03844164
55	0xbdb6d1fc	-0.0892677
56	0x3cb04f9f	0.021522341
57	0x3defe00a	0.11712654
58	0xbdea19e8	-0.114307225
59	0xbd576b14	-0.052592352
60	0xbc66b2a9	-0.014080682
61	0x3cf5bcd8	0.029997274
62	0xbca091cf	-0.019600777
63	0x3d2ffbd1	0.04296476

mp_layers.0.attention.weight f4 [1, 128]
0	0xbc7c533c	-0.015400704
1	0xbdd4f81e	-0.10398887
2	0x3c81696e	0.015797343
3	0x3c0c443f	0.008561193
4	0xbda4bf3a	-0.08044286
5	0xbdde2d8e	-0.108485326
6	0x3c33efc0	0.010982454
7	0xbd3160e0	-0.043305278
8	0x3d4ec51b	0.050480943
9	0x3d02b1a3	0.03190769
10	0xbd4df1eb	-0.05027954
11	0xbe336eac	-0.17522687
12	0xbb0babbe	-0.0021312083
13	0xbdfe7d3c	-0.1242623
14	0xbe052e9d	-0.13006063
15	0x3d040b57	0.032237377
16	0x3d155add	0.036463607
17	0x3d1744e1	0.036930922
18	0xbd7785ee	-0.06043046
19	0x3d76ebc5	0.06028344
20	0xbca79098	-0.02045469
21	0xbdbef9f2	-0.09325017
22	0x3dec418e	0.11535941
23	0xbd865bff	-0.065605156
24	0x3cf9ac44	0.03047765
25	0xbd7ce394	-0.061740473
26	0x3e2cda12	0.16880062
27	0x3d9cef7c	0.076628655
28	0xbd2ee0c7	-0.042694833
29	0x3d3eebca	0.046611585
30	0x3e3af544	0.18257624
31	0xbc203844	-0.00977904
32	0xbdc528f3	-0.09626951
33	0xbdcc4557	-0.09974163
34	0x3e12f477	0.14351068
35	0x3d275741	0.040854696
36	0xbd96e7db	-0.07368442
37	0xbd9356d8	-0.071942985
38	0xbd1195e4	-0.035543337
39	0x3c1e7a2d	0.009672684
40	0x3bd9a1c4	0.0066415984
41	0xbd78a79a	-0.060706712
42	0xbd3bfce7	-0.045895483
43	0xbdf319bd	-0.118701436
44	0x3cca9e52	0.024733696
45	0x3cd89316	0.026437324
46	0xbd4793c0	-0.04872489
47	0xbd388e49	-0.04505757
48	0x3ceac864	0.028660007
49	0x3db91654	0.09037462
50	0x3e360ae6	0.17777595
51	0x3d156d30	0.036481082
52	0x3d432eb1	0.04765195
53	0x3dd55f8d	0.104186155
54	0x3cbe777f	0.02325034
55	0xbd9d8bae	-0.076926574
56	0xbe2ce983	-0.16885953
57	0x3e175e5f	0.14782093
58	0xbd12d89d	-0.03585111
59	0xbc398afe	-0.011324642
60	0x3d10f160	0.035386443
61	0x3c10fd9e	0.00884953
62	0xbcbb0fbb	-0.02283465
63	0xba0ee216	-0.00054505595
64	0xbd18a58e	-0.03726726
65	0xbdb6e6ba	-0.08930726
66	0xbd991feb	-0.07476791
67	0xbd860299	-0.06543464
68	0xbe127f27	-0.14306317
69	0x3db1c236	0.08679621
70	0xbd4ce73c	-0.05002521
71	0xbd612e39	-0.054975722
72	0x3d6f6ca5	0.05845322
73	0xbaa173a4	-0.0012317789
74	0xbdfd3f55	-0.12365595
75	0xbe2620f9	-0.16223516
76	0xbe06152f	-0.13094018
77	0xbda4639a	-0.0802681
78	0xbd7b4de0	-0.061353564
79	0x3c891e09	0.016737955
80	0xbd19dcf0	-0.037564218
81	0xbd2b3003	-0.041793834
82	0xbe028681	-0.12746622
83	0x3c8969f9	0.016774165
84	0xbca58092	-0.020202909
85	0xbd2f6339	-0.042819235
86	0x3d3d3f59	0.04620299
87	0xbd82696d	-0.063677646
88	0x3c4f79e2	0.0126633365
89	0xbbebef69	-0.007200171
90	0x3dbaee36	0.091274664
91	0xba47c18d	-0.0007620089
92	0xbce9fb79	-0.028562294
93	0x3d9382c7	0.07202678
94	0x3d7a4881	0.0611043
95	0xbc1c143d	-0.00952631
96	0xbdc13aa4	-0.09435013
97	0xbd6076a1	-0.054800633
98	0xbcb15ffc	-0.021652214
99	0x3d774591	0.060369078
100	0x3c14674d	0.009057832
101	0x3c81dad3	0.015851414
102	0x3d466a64	0.048441306
103	0xbd5bedfe	-0.053693764
104	0xbd6691c2	-0.05629135
105	0x3d2799f9	0.040918324
106	0xbd0f184a	-0.034935273
107	0x3d1536e3	0.036429297
108	0x3daf3098	0.085541904
109	0x3c1553e0	0.009114236
110	0x3d84907f	0.06472873
111	0xbc4f4dec	-0.012652855
112	0x3d70236d	0.058627535
113	0x3c525be1	0.012839288
114	0x3e15d034	0.14630204
115	0x3af8adfc	0.001897275
116	0x3ddfba85	0.10924248
117	0xbc2ca710	-0.010537878
118	0x3ca9b4d0	0.0207161
119	0xbd08540c	-0.03328328
120	0xbce21d7d	-0.027601952
121	0x3ca49ffe	0.020095821
122	0xbd9576d0	-0.07298052
123	0xbcb9baec	-0.02267214
124	0x3d6b3aac	0.057429
125	0xbc5b4793	-0.013383764
126	0xbc11da6f	-0.008902176
127	0xbdba1b47	-0.09087234

mp_layers.1.lin.weight f4 [64, 64]
0	0xbce2d4a4	-0.027689286
1	0xbdf15dc9	-0.11785466
2	0xbbf760e4	-0.007549392
3	0xbcde73eb	-0.027154883
4	0x3d94718b	0.07248219
5	0x3da8bebf	0.08239507
6	0x3d1afea0	0.037840486
7	0xbd473e38	-0.04864332
8	0xbd78da76	-0.060755216
9	0x3d133416	0.035938345
10	0xbcdbca5d	-0.026829893
11	0x3de98eec	0.11404213
12	0xbd3a1499	-0.0454298
13	0x3dc2cee8	0.095121205
14	0xbb5ae5cc	-0.003340113
15	0xbd807b91	-0.062735684
16	0xbc1cbb64	-0.009566162
17	0x3c8e81cd	0.017395878
18	0xbd86a470	-0.06574333
19	0x3bda3920	0.006659642
20	0xbd0e3524	-0.034718648
21	0x3bbfdbc2	0.0058550546
22	0xbd2bf20e	-0.04197889
23	0x3c64b6d5	0.013959606
24	0x3cbf0046	0.02331556
25	0x3daef213	0.08542266
26	0xbdb4c867	-0.08827286
27	0x3d025872	0.03182263
28	0xbd840941	-0.064470775
29	0xbc11448c	-0.0088664405
30	0x3db1507e	0.08657931
31	0xbde0c7fb	-0.10975643
32	0x3d479f52	0.048735924
33	0xbd85ddfc	-0.06536481
34	0xbb9cc323	-0.0047840043
35	0xbd6bd5c4	-0.05757691
36	0xbd65b115	-0.05607708
37	0x3c237403	0.00997639
38	0xbd527dc2	-0.051389463
39	0xba20dec3	-0.00061367097
40	0xbdf9cf49	-0.1219774
41	0x3d33aecb	0.043867867
42	0xbdcac39e	-0.09900592
43	0xbd87bd84	-0.06627944
44	0x3dff6452	0.124703065
45	0xbda23a6c	-0.07921299
46	0x3cbf7f12	0.023376022
47	0xbddaa64a	-0.10676248
48	0xbdfa092e	-0.12208782
49	0x3d21b372	0.039477773
50	0xbc079ece	-0.008277608
51	0x3ba7a556	0.005116145
52	0xbd987387	-0.0744391
53	0x3dea4acc	0.114400476
54	0x3cf5a34a	0.029985089
55	0x3dd33865	0.10313491
56	0xbd798081	-0.060913566
57	0xbdd65e79	-0.10467238
58	0xbd9b8b73	-0.07594957
59	0xbcb34cb7	-0.021887166
60	0x3db8dc89	0.09026439
61	0x3da3ec89	0.080041
62	0x3d95b92a	0.07310708
63	0x3d91f6c1	0.07127143
64	0x3d8a095d	0.06740067
65	0xbdc6c48a	-0.097054556
66	0xbd01a839	-0.03165457
67	0x3db6fee3	0.089353345
68	0xbd49bca5	-0.04925217
69	0x3d545cdc	0.05184637
70	0xbdaa767e	-0.08323382
71	0xbd0e581a	-0.03475199
72	0xba052da4	-0.00050803483
73	0x3db9794f	0.09056341
74	0xbd97664e	-0.0739256
75	0x3d6c3e79	0.057676766
76	0x3dc8ad49	0.097986765
77	0xbd1cc69b	-0.038275342
78	0x3da10bd4	0.07863584
79	0x3d4b37f8	0.049613923
80	0x3d2e0e40	0.04249406
81	0x3d3f043e	0.046634905
82	0xbdcdd41c	-0.10050222
83	0x3d2041e1	0.039125327
84	0xbc8badd3	-0.01705066
85	0xbdc99163	-0.098421834
86	0xbdbf88d9	-0.093522735
87	0x3c8f7e59	0.017516302
88	0x3d2c3208	0.0420399
89	0x3d902af0	0.0703944
90	0xbc985aa5	-0.01859791
91	0xbda1281b	-0.07868978
92	0xbdccd719	-0.10001964
93	0x3d0fefd9	0.035140846
94	0xbc97f864	-0.018551059
95	0xbd1f4f1b	-0.0388938
96	0x3d00fcd6	0.031491123
97	0xbda450e9	-0.08023245
98	0x3d75acd1	0.059979264
99	0xbce1e05c	-0.027572803
100	0xbac0101f	-0.0014653242
101	0xbd99c049	-0.075073786
102	0xba85d3e5	-0.0010210244
103	0xbdfc9ca6	-0.12334566
104	0xbc99d106	-0.018776428
105	0xbd803381	-0.062598236
106	0x3c604ac6	0.013689702
107	0x3d9bdf1c	0.07610914
108	0x3d99dec8	0.07513195
109	0xbb80ab32	-0.003926658
110	0xbdf4bd88	-0.11950213
111	0x3c1e2145	0.009651487
112	0x3c96a0a3	0.018387144
113	0x3e00d05c	0.12579483
114	0xbce9bf4d	-0.028533602
115	0x3bacd52c	0.0052744355
116	0x3cdf7b6b	0.02728053
117	0x3d30fcf4	0.043209985
118	0xbd401088	-0.046890765
119	0x3dfad9a2	0.122485414
120	0xbba13827	-0.004920024
121	0x3d10f923	0.035393845
122	0xbcc0ab7e	-0.023519274
123	0xbddfcab9	-0.10927338
124	0x3dcd5bd7	0.10027283
125	0x3d886893	0.06660571
126	0xbd1f1763	-0.038840663
127	0xbcc34b25	-0.023839543
128	0xbd7e0818	-0.062019438
129	0x3d22c337	0.039736953
130	0x3e2f7f66	0.17138442
131	0xbd68c0f6	-0.056824647
132	0xbd6effe0	-0.05834949
133	0xbcf880d0	-0.03033486
134	0xbd599a73	-0.05312581
135	0xbe3e05be	-0.18556878
136	0x3ca50842	0.02014554
137	0xbe1b79d2	-0.1518319
138	0x3ceb8163	0.02874822
139	0xbdba1f3c	-0.09087989
140	0xbdf069b8	-0.11738914
141	0xbd8ac1a3	-0.067752145
142	0xbd80afd4	-0.062835366
143	0xbc0f4027	-0.008743322
144	0xbc7d1ed1	-0.015449242
145	0x3b2befbb	0.002623542
146	0xbbf0d469	-0.00734954
147	0xbd409301	-0.047015194
148	0xbdff1c40	-0.1245656
149	0x3d892c65	0.06697921
150	0xbdbd51e2	-0.092441335
151	0xbd4e5805	-0.05037691
152	0x3e0a80ff	0.1352577
153	0xbd89f2bb	-0.0673575
154	0x3dadd1bd	0.0848727
155	0x3dc36acd	0.09541855
156	0xbc589c89	-0.013220915
157	0x3c980f62	0.018562023
158	0xbcea6926	-0.028614592
159	0xbd704d67	-0.058667567
160	0xbd88de36	-0.066830084
161	0xbdd3016d	-0.10303006
162	0xbdbb90e2	-0.091584936
163	0xbdf9adbd	-0.12191341
164	0x3d370242	0.044679888
165	0x3c80609e	0.01567107
166	0x3d83b49f	0.06430935
167	0x39b7b574	0.00035039673
168	0xbcf5c347	-0.030000342
169	0xbd76581b	-0.060142618
170	0x3df64768	0.120253384
171	0x3d8dbdfe	0.06921004
172	0x3cfb9767	0.030711843
173	0x3dd7620d	0.105167486
174	0x3dbd6c74	0.092492014
175	0xbcbfba08	-0.023404136
176	0x3e0449da	0.12918797
177	0x3df3ec71	0.11910332
178	0x3dc8e1c8	0.09808689
179	0xbc94565d	-0.018107587
180	0xbdba620f	-0.091007344
181	0xbcf7d651	-0.030253561
182	0xbdac957d	-0.0842695
183	0xbd28ffa5	-0.041259427
184	0xbd1002e5	-0.03515901
185	0xbdc7ad3d	-0.097498395
186	0x3dd68899	0.10475273
187	0x3d85ea87	0.06538873
188	0xbcd5f95d	-0.026119882
189	0xbc149888	-0.009069569
190	0xbdd5889b	-0.10426446
191	0x3d2c4f38	0.042067736
192	0xba205fed	-0.00061178097
193	0xbbb414ae	-0.0054956293
194	0x3cc675fd	0.024226183
195	0x3d4fc173	0.050721597
196	0xbd145e8d	-0.036222983
197	0x3dc9a5c5	0.09846071
198	0xbdafd842	-0.0858617
199	0xbe16cf06	-0.1472741
200	0x3b65d8a6	0.003507176
201	0x3bc2bb7e	0.005942761
202	0x3dc6cb0e	0.09706698
203	0x3de67bb0	0.1125406
204	0xbc85c675	-0.016329983
205	0x3db48717	0.08814829
206	0x3c3d929f	0.011570602
207	0x3d910043	0.07080128
208	0x3df05e60	0.117367506
209	0x3a4d8e4d	0.0007841334
210	0x3d015a64	0.031580344
211	0x3dc6a521	0.096994646
212	0xbc10161b	-0.008794333
213	0x3ce8d88a	0.028423566
214	0xbd0428a0	-0.032265306
215	0x3d493219	0.049120042
216	0x3cfbcc67	0.030737115
217	0xbdf1c486	-0.11805062
218	0xbcc701b2	-0.0242928
219	0xbb132d3f	-0.0022457389
220	0xbde5a770	-0.11213577
221	0x3dba8b5d	0.09108613
222	0x3cb71f25	0.022353718
223	0x3d7370bc	0.059433684
224	0xbd26d148	-0.04072693
225	0x3dedffb9	0.11621041
226	0x3d8ec804	0.06971744
227	0xbd7734ff	-0.060353275
228	0xbda910e0	-0.08255172
229	0x3c4b2fa3	0.012401494
230	0xbd86690a	-0.06563003
231	0xbd7ac8b8	-0.061226577
232	0x3d001561	0.03127039
233	0x3bde658b	0.006787007
234	0xbd180e56	-0.037123047
235	0x3bd866fe	0.0066040745
236	0xbdbeb026	-0.093109414
237	0x3c8ec0f3	0.01742599
238	0x3d26ee36	0.04075452
239	0x3c6ea1fa	0.014564985
240	0xbc5baaa8	-0.013407387
241	0x3d9bcda7	0.076075844
242	0x3d566b92	0.05234868
243	0x3ba1842f	0.0049290876
244	0x3de0f4c0	0.10984182
245	0xbdcb7ecf	-0.09936296
246	0xbce0f1b0	-0.027458996
247	0x3ddebe03	0.108760856
248	0x3d6ac601	0.057317737
249	0x3e01b771	0.12667634
250	0x3da19ed3	0.078916214
251	0xbd114dc1	-0.035474543
252	0x3da52e86	0.08065514
253	0x3da0d50e	0.07853137
254	0x3dae64d9	0.08515329
255	0xbdb013ec	-0.0859755

mp_layers.1.lin.bias f4 [64]
0	0x3d6c575c	0.0577005
1	0x3d9ae9f0	0.07564151
2	0x3c923fe9	0.01785274
3	0x3d1c598e	0.038171344
4	0x3d8f724d	0.07004223
5	0xbc4ad21e	-0.012379197
6	0xbdb0ea49	-0.08638436
7	0xbbe268fc	-0.006909488
8	0x3d8740e4	0.06604174
9	0xbd5da4b5	-0.054112155
10	0x3caba130	0.020950884
11	0x3dc273a7	0.09494715
12	0x3cc0ec5c	0.023550205
13	0xbd7ae64f	-0.061254796
14	0xbd811393	-0.063025616
15	0xbd9f6ef5	-0.07784835
16	0x3d242361	0.040072802
17	0xbdd65add	-0.104665495
18	0x3df3ca32	0.119038
19	0x3b82296d	0.0039722235
20	0xb9e33771	-0.0004333812
21	0x3d0c56b9	0.034262393
22	0xbddb3e1e	-0.10705207
23	0x3d2c4454	0.04205735
24	0x3de3fc0f	0.11132061
25	0xbcd8f546	-0.026484143
26	0x3dcd089f	0.1001141
27	0xbd9ac41c	-0.07556936
28	0x3da2df9c	0.07952806
29	0x3d355fba	0.044280745
30	0x3b6f9e5c	0.0036562895
31	0xbd6a4b41	-0.057200674
32	0x3d2b6eed	0.041853834
33	0xbe0e7082	-0.13910106
34	0x3d8acc29	0.06777222
35	0x3de21238	0.11038631
36	0xbd9f965f	-0.07792353
37	0x3cde08d6	0.027103823
38	0x3c7ed052	0.015552597
39	0xbd0a0608	-0.033697158
40	0x3de3761f	0.11106514
41	0x3d851287	0.064976744
42	0xbdb312e7	-0.0874384
43	0xbc961e89	-0.018325107
44	0x3d248e10	0.040174544
45	0xbd489898	-0.04897365
46	0x3da4af6b	0.08041271
47	0x3daa83e9	0.08325941
48	0x3cc8ebaa	0.024526436
49	0xbdb943e3	-0.090461515
50	0x3dc3a089	0.09552104
51	0x3d9fad16	0.077966854
52	0x3dc4060f	0.09571468
53	0xbd964b40	-0.073385715
54	0xbdd2c804	-0.10292056
55	0xbd0d87ec	-0.034553453
56	0xbdab7c57	-0.08373325
57	0x3dd811ad	0.105502464
58	0xbd802f75	-0.06259052
59	0xbc5dc329	-0.013535299
60	0x3de1029b	0.10986825
61	0x3dbb3131	0.09140242
62	0xbda8d415	-0.082435764
63	0xbd815819	-0.063156314

mp_layers.1.attention.weight f4 [1, 128]
0	0xbd604d83	-0.05476142
1	0x3cad36c1	0.021144273
2	0x3e152b18	0.1456722
3	0x3cf252ce	0.0295805
4	0xbd1a7b79	-0.03771541
5	0x3da9ed7c	0.0829725
6	0xba891ea8	-0.0010461407
7	0x3d524195	0.051332075
8	0xbc0c21c7	-0.008552975
9	0xbde72cd9	-0.11287851
10	0x3e158a5b	0.1460356
11	0xbdcd0d0b	-0.100122534
12	0x3cfbff36	0.030761342
13	0x3d97fc96	0.07421224
14	0xbd202d19	-0.03910551
15	0x3d2e9084	0.04261829
16	0x3d63f484	0.05565311
17	0x3c98d29a	0.01865511
18	0x3d35b326	0.044360302
19	0x3ca4d9cd	0.020123387
20	0xbd14be80	-0.036314487
21	0x3ccf5c35	0.025312522
22	0x3dbb1660	0.09135127
23	0x3d6ce24f	0.057833012
24	0xbc3a29f6	-0.011362543
25	0x3d080e47	0.03321674
26	0xbd7a3e58	-0.061094612
27	0x3cee0914	0.029057063
28	0xbdb89271	-0.090123065
29	0xbd06db7f	-0.03292417
30	0x3dcac2da	0.09900446
31	0x3dc38d53	0.0954844
32	0x3d8548ed	0.0650805
33	0x3ced75ae	0.028986778
34	0x3d6423e8	0.055698305
35	0xbce2e69a	-0.02769785
36	0xbce89e25	-0.028395722
37	0x3bd834d8	0.0065980963
38	0xbdaf87e9	-0.08570845
39	0x3d16e81d	0.036842454
40	0x3cba069a	0.022708226
41	0xbc8f5655	-0.017497221
42	0x3cdb1135	0.026741603
43	0xbdadb3e0	-0.08481574
44	0xbd7102a2	-0.0588404
45	0x3da566f8	0.0807628
46	0x3b04e839	0.0020280017
47	0xbd5cb978	-0.053887814
48	0x3e077e75	0.13231833
49	0x3be57e62	0.0070035914
50	0x3dcf4bef	0.10121905
51	0x3d2255de	0.03963267
52	0x3aede683	0.0018150363
53	0x3c610bd2	0.013735728
54	0x3c20a3ac	0.009804647
55	0x3d6b4fef	0.057449277
56	0x3c5a394e	0.013319327
57	0xbd904a20	-0.07045388
58	0xbca89b81	-0.020581963
59	0x3daa07e0	0.08302283
60	0xbdaf3ece	-0.08556901
61	0xbcaea01c	-0.02131658
62	0xbc3fecd7	-0.011714182
63	0xbda9e4a3	-0.08295562
64	0x3d8fad79	0.07015509
65	0xbd949eaa	-0.07256825
66	0x3bdd26d7	0.006749015
67	0x3ce158fd	0.027508253
68	0x3dad0a46	0.08449225
69	0xbd57d973	-0.05269761
70	0x3d8dfb6f	0.06932723
71	0xbc678a75	-0.014132132
72	0x3dab26a3	0.08356979
73	0xbd8859ea	-0.06657775
74	0x3c7be96b	0.015375475
75	0x3d4043ef	0.046939787
76	0x3c97cb99	0.0185297
77	0x3d788ee7	0.060683157
78	0x3d91a399	0.07111282
79	0xbc226693	-0.009912151
80	0xbd382471	-0.04495663
81	0xbd2bc87d	-0.041939247
82	0x3dd0a068	0.10186845
83	0xbd9de368	-0.0770939
84	0x3dd4a8c2	0.103837505
85	0x3d92dabd	0.07170627
86	0x3cafbf34	0.021453477
87	0xbba3119c	-0.0049764644
88	0xbd80ce32	-0.06289329
89	0xbd2c6bb0	-0.042094886
90	0x3c84206c	0.016128741
91	0xbd6d05b7	-0.05786678
92	0x3dc2c8ac	0.095109314
93	0x3c91ad48	0.017782822
94	0xbd85e984	-0.0653868
95	0xbd215994	-0.03939207
96	0x3cfc23dd	0.03077882
97	0xbda5516e	-0.08072172
98	0xbdd0edf5	-0.10201637
99	0x3d3f035b	0.04663406
100	0xbd2120f1	-0.039338056
101	0x3da3762a	0.079815224
102	0x3d59a5b7	0.053136554
103	0x3d85e1f8	0.06537241
104	0x3d9ea25d	0.07745812
105	0x3d9a5107	0.07534986
106	0xbbdf3b7e	-0.006812512
107	0xbda02b99	-0.078208156
108	0xbcced9ce	-0.025250342
109	0x3d4b12fa	0.049578644
110	0x3dad64d3	0.08466496
111	0xbd8c5554	-0.068522125
112	0xbd837b10	-0.06419957
113	0xbd8a2213	-0.067447804
114	0xbd92847e	-0.07154177
115	0xbd4cb245	-0.0499747
116	0xbbc9eb77	-0.006162103
117	0x3d850608	0.06495291
118	0x3d4b3e34	0.04961987
119	0xbd7efad8	-0.062250942
120	0xbdc4228c	-0.09576902
121	0x3c92f30b	0.017938158
122	0xbd48856d	-0.04895537
123	0xbca74193	-0.02041701
124	0xbccee71e	-0.02525669
125	0xbd137eef	-0.036009725
126	0x3b74111c	0.0037241643
127	0xbd5134a5	-0.051075596

mp_layers.2.lin.weight f4 [64, 64]
0	0x3dae1870	0.08500755
1	0x3d21b06b	0.039474886
2	0x3c881473	0.016611313
3	0xbda80e11	-0.08205808
4	0xbcc4c3e4	-0.02401919
5	0xbdd6fc17	-0.10497301
6	0xbd8372a9	-0.06418354
7	0x3d135201	0.035966877
8	0xbd0357b7	-0.032066073
9	0xbd293e6e	-0.041319303
10	0xbdae3d6b	-0.08507808
11	0x3dd9156c	0.10599789
12	0x3db7c3e9	0.08972914
13	0x3d763dc8	0.060117513
14	0xbdf4160a	-0.11918266
15	0x3d4edd7d	0.050504196
16	0xbd118dfb	-0.035535794
17	0xbdad570d	-0.08463869
18	0x3c14868d	0.0090652825
19	0x3d8b84c0	0.068124294
20	0x3d96e4fc	0.07367894
21	0xbc5d6233	-0.013512182
22	0x3c95fe38	0.018309698
23	0xbdc25871	-0.09489525
24	0xbd4a690f	-0.049416598
25	0x3d088203	0.033327114
26	0x3db8af99	0.090178676
27	0xbd271510	-0.04079157
28	0xbcd52fbb	-0.026023736
29	0xbcb2d2aa	-0.021828968
30	0xbca28053	-0.01983658
31	0x3a780652	0.0009461391
32	0x3d6d14c9	0.05788115
33	0x3d13281b	0.03592692
34	0x3d458459	0.04822192
35	0x3dfab51f	0.12241577
36	0x3dbc9767	0.09208565
37	0x3dee0286	0.11621575
38	0x3e001407	0.1250764
39	0x3c9b82e6	0.018983316
40	0xbdb71590	-0.089396596
41	0x3d045005	0.032302875
42	0xbd5a5d01	-0.05331135
43	0x3d39c16e	0.045350485
44	0x3ca7ebd7	0.0204982
45	0x3cdd1482	0.026987318
46	0x3d9fae77	0.077969484
47	0x3daa17ee	0.083053455
48	0xbcbe10cb	-0.023201367
49	0x3dc2f64d	0.095196344
50	0xbd6d6661	-0.057958964
51	0xbdfbf158	-0.12301892
52	0xbd98c51f	-0.07459473
53	0xbd6341e4	-0.05548276
54	0xbce38866	-0.027775
55	0x3db3ba44	0.08775762
56	0x3d9ea3bc	0.077460736
57	0x3d225c2a	0.039638676
58	0xbcccf491	-0.025018962
59	0xbce30ec0	-0.027716994
60	0xbddcd449	-0.10782678
61	0x3bb100e9	0.00540172
62	0x3d657999	0.056024168
63	0x3db2c6be	0.08729313
64	0x3e025e24	0.12731224
65	0x3d4b7233	0.049669456
66	0xbd67f26b	-0.056627672
67	0x3da4c893	0.08046069
68	0xbd66d44a	-0.0563548
69	0x3de29b99	0.11064834
70	0x3d8ceb78	0.068808496
71	0x3cd158b8	0.025555
72	0xbe0228b4	-0.1271084
73	0x3c01b699	0.00791707
74	0x3d9d4e3b	0.07680937
75	0xbdc2cff3	-0.095123194
76	0xbde7c49a	-0.11316796
77	0x3a707755	0.00091730553
78	0x3d94a8bc	0.07258746
79	0xba860d48	-0.0010227347
80	0x3d7f8d2b	0.062390488
81	0x3d8f5057	0.069977455
82	0x3ddd7ba3	0.108145975
83	0xbdf2bc80	-0.1185236
84	0x3dddca69	0.10829622
85	0x3d4c3900	0.049859047
86	0xbc8c9cd6	-0.017164629
87	0xbdfd4f09	-0.123685904
88	0xbd837cbd	-0.06420276
89	0x3ba9bc2a	0.0051799016
90	0x3daeddb2	0.08538379
91	0x3c9afc9d	0.018919284
92	0x3dcaf8dd	0.09910748
93	0x3d92b7d7	0.07163971
94	0x3da76dbe	0.081752285
95	0xbdc897bd	-0.09794567
96	0x3cfdea97	0.03099565
97	0x3cd895d5	0.026438633
98	0xbdf5b414	-0.11997238
99	0x3de3ee11	0.11129392
100	0x3b47b8e5	0.0030475196
101	0x3d08bd94	0.03338392
102	0x3c76de23	0.01506761
103	0xbdb1e82f	-0.08686864
104	0x3dbce2cd	0.09222946
105	0xbb316486	-0.0027067973
106	0xbce5d5ce	-0.028056052
107	0xbcb6bc29	-0.022306519
108	0x3dd23a74	0.10265055
109	0xbd42eabd	-0.047587145
110	0xbd5e0a35	-0.054208953
111	0xbdee33b1	-0.11630953
112	0xbded712e	-0.11593853
113	0xbc475c0d	-0.012167943
114	0xbd32700d	-0.04356389
115	0xbd53e34e	-0.051730447
116	0x3c06010d	0.008178961
117	0xbc376154	-0.011192638
118	0xbdd94586	-0.10608964
119	0x3d0351aa	0.032060303
120	0xbd614085	-0.05499317
121	0x3db24b6c	0.08705792
122	0xbd963fd3	-0.07336392
123	0xbd694077	-0.056946244
124	0x3d0c4ba3	0.03425182
125	0xbdd20f38	-0.10256809
126	0xbccb1921	-0.024792256
127	0x3de0e54e	0.109812364
128	0x3d5d06bf	0.05396151
129	0x3b97e119	0.004634988
130	0xbd669d73	-0.0563025
131	0x3d5c6cd7	0.053814735
132	0xbe12ad06	-0.14323816
133	0xbe003698	-0.12520826
134	0x3ba6e686	0.0050933985
135	0x3d7a43f9	0.06109998
136	0xbd8cbe80	-0.068722725
137	0x3b81cab6	0.0039609326
138	0x3d075a1b	0.033044916
139	0xbe11373b	-0.14181225
140	0x3d7d5985	0.06185295
141	0xbd8116f5	-0.06303207
142	0x3da8329f	0.0821278
143	0x3da757c1	0.081710346
144	0xbc25f77a	-0.010129804
145	0xbd5c048e	-0.05371528
146	0xbe0bbae6	-0.13645515
147	0x3cd54910	0.026035815
148	0x3cd42906	0.025898468
149	0xbdcdf539	-0.10056538
150	0x3a13c566	0.00056370196
151	0xbda51e15	-0.08062378
152	0x3d68ab4b	0.056803983
153	0x3c8a116c	0.01685401
154	0x3dabeffe	0.08395384
155	0xbd09ac6b	-0.033611696
156	0x3d900a98	0.070332706
157	0xbdb74206	-0.0894814
158	0xbcee5cf2	-0.029097054
159	0xbd352d81	-0.04423285
160	0xbdd00b9b	-0.101584636
161	0xbaaf29ac	-0.001336386
162	0xbb122506	-0.00222999
163	0xbdf09e95	-0.11748997
164	0x3d5d235c	0.0539888
165	0xbc8fa5cd	-0.017535115
166	0x3d9bc07b	0.07605072
167	0x3db67b5f	0.0891025
168	0xbdcec62b	-0.10096391
169	0x3c02f9a3	0.007994088
170	0xbde66cc4	-0.11251214
171	0xbdd02079	-0.10162444
172	0xbdd56cf7	-0.10421174
173	0x3e062240	0.13099003
174	0x3c9d9be6	0.019239377
175	0xbe22b6c3	-0.1589003
176	0xbd88695e	-0.06660722
177	0xbe1abebe	-0.15111825
178	0xbce64845	-0.028110633
179	0x3daed471	0.08536614
180	0xbd9701e7	-0.0737341
181	0xbd821a57	-0.0635268
182	0x3cb8164b	0.022471568
183	0x3dfdf9ca	0.12401159
184	0x3de114bd	0.10990284
185	0xbbabcd89	-0.0052430076
186	0xbc77845b	-0.01510724
187	0xbc5b76e3	-0.013395044
188	0x3d00bab4	0.031428054
189	0x3dc425eb	0.09577545
190	0xbd8c8e42	-0.06863071
191	0xbd9f750a	-0.07785995
192	0xbd58dbc3	-0.052943956
193	0x3c3b7373	0.011441099
194	0xbd6413da	-0.055682994
195	0x3dc935aa	0.09824689
196	0xbd62f356	-0.055407844
197	0xbd629b22	-0.055323727
198	0x3ccc5503	0.02494288
199	0x3daed7a4	0.08537224
200	0xbd918d59	-0.07107038
201	0xbde75f6d	-0.11297498
202	0x3e090648	0.13381302
203	0xbd630830	-0.05542773
204	0x3ddda406	0.108223006
205	0xbdeae387	-0.11469179
206	0xbd897d56	-0.06713359
207	0xbc7132ca	-0.014721582
208	0x3db72e53	0.089443825
209	0x3d725a71	0.059168283
210	0xbced6d21	-0.0289827
211	0xbd5adb2a	-0.053431667
212	0x3da9d6f3	0.082929514
213	0x3d6fc61f	0.058538552
214	0x3d9ff535	0.078104414
215	0xbc8ee462	-0.017442886
216	0xbdd5972a	-0.10429223
217	0xbced0f15	-0.028937856
218	0xbcda885c	-0.02667635
219	0x3d182749	0.03714684
220	0x3d6705d5	0.056402046
221	0xbdffda43	-0.12492802
222	0xbcdf391d	-0.027248913
223	0x3d9d3fc4	0.07678178
224	0xbd6d96f3	-0.058005285
225	0xbcc4190a	-0.02393772
226	0xbd55936b	-0.05214254
227	0xbc2a9c6c	-0.01041327
228	0xbd887ab4	-0.06664029
229	0xbae565de	-0.0017501672
230	0xbd7415e2	-0.05959118
231	0xbc5f6185	-0.01363409
232	0xbdd5d467	-0.10440903
233	0x3d029241	0.03187776
234	0xbce7441c	-0.02823072
235	0x3dc732c6	0.09726481
236	0x3d17db70	0.037074506
237	0xbd9aa96f	-0.07551848
238	0xbda23c61	-0.079216726
239	0x3db9f208	0.09079367
240	0xbda02bd7	-0.07820862
241	0x3dba05d0	0.0908314
242	0x3de9b0c6	0.1141067
243	0xbd3e2c3f	-0.046428915
244	0x3c849e74	0.016188838
245	0x3da4f9f6	0.08055489
246	0xbd535635	-0.051595885
247	0x3d799e31	0.06094188
248	0xbd8d1968	-0.068896115
249	0xbcb604db	-0.022219112
250	0xbc592c81	-0.013255239
251	0xbd1dac96	-0.03849467
252	0xbdac0303	-0.08399012
253	0x3dd3940a	0.103309706
254	0xbd500da9	-0.050794277
255	0x3df1863e	0.11793183

mp_layers.2.lin.bias f4 [64]
0	0xbd162aea	-0.03666202
1	0xbd9c7b11	-0.076406606
2	0xbcbe6076	-0.023239356
3	0xbdde9bc2	-0.10869552
4	0x3d1d3f55	0.038390476
5	0x3beda628	0.0072524734
6	0xbbcdd4c2	-0.006281466
7	0x3b0556ce	0.002034593
8	0x3cb72a8d	0.022359157
9	0x3d4886c6	0.048956655
10	0x3dc2455b	0.09485885
11	0x3dffc2dd	0.12488339
12	0x3ddfc4a9	0.10926182
13	0xbdf9927d	-0.121861435
14	0xbd765f52	-0.0601495
15	0xbdd44419	-0.10364551
16	0xbd42e202	-0.04757882
17	0x3d15e092	0.03659112
18	0x3da78709	0.08180053
19	0xbdfa3550	-0.122172
20	0xbc3f4fed	-0.011676771
21	0x3def4eeb	0.11684974
22	0x3e03cf3f	0.12872027
23	0x3deeee56	0.11666553
24	0xbcc2a233	-0.023758983
25	0x3de0d7da	0.109786704
26	0xbd118314	-0.035525396
27	0x3ceaa0e1	0.028641166
28	0x3d5d1230	0.053972423
29	0xbda6816b	-0.08130153
30	0xbd0a6d01	-0.03379536
31	0xbc8befaf	-0.017082063
32	0xbd1a6093	-0.037689757
33	0x3db65654	0.089031845
34	0x3d939cae	0.07207619
35	0xbe0343a4	-0.12818772
36	0x3dcc43f8	0.099739015
37	0xbd4643ea	-0.04840461
38	0xbca653c0	-0.020303607
39	0x3dab7ae6	0.083730504
40	0xbda65346	-0.08121352
41	0xbc1fa77d	-0.009744522
42	0xbdd2833c	-0.10278937
43	0xbbc5c191	-0.006035038
44	0xbda8c695	-0.082410015
45	0x3ddd344e	0.10800992
46	0xbd736eeb	-0.05943195
47	0x3d8516d2	0.06498493
48	0x3d3e3abc	0.046442732
49	0xbdc02662	-0.09382321
50	0xbdf4b56f	-0.11948668
51	0xbdae243d	-0.08503006
52	0xbdf4c2e1	-0.11951233
53	0xbd3a229f	-0.045443173
54	0xbda18b87	-0.07887941
55	0xbd540f52	-0.051772423
56	0x3cc55403	0.024087911
57	0x3c49bfa9	0.012313762
58	0xbd18998b	-0.037255805
59	0x3cf7916b	0.030220708
60	0xbca7ffc0	-0.020507693
61	0xbdbcf61d	-0.0922663
62	0x3d7e25b2	0.062047668
63	0x3c69a955	0.014261563

mp_layers.2.attention.weight f4 [1, 128]
0	0x3d114e75	0.035475213
1	0x3cceb347	0.02523197
2	0x3d3f8323	0.04675592
3	0x3d9ba1a9	0.075991936
4	0x3bdefe09	0.0068051857
5	0x3d87112d	0.06595073
6	0x3d7fe1ee	0.062471323
7	0xbd27a555	-0.040929157
8	0x3c7863a8	0.015160479
9	0x3d84e8cb	0.06489714
10	0x3c493e30	0.012282893
11	0x3d263e75	0.040586907
12	0xbc914cf6	-0.017736893
13	0xbd280447	-0.041019704
14	0x3d8125d1	0.06306041
15	0x3d7795b9	0.06044552
16	0x3d6be625	0.05759253
17	0xbd2899b8	-0.041162223
18	0x3d8de621	0.06928659
19	0xbd5137d1	-0.05107862
20	0x3d710b4b	0.05884866
21	0x3ca03281	0.019555332
22	0xbd1b097e	-0.03785085
23	0x3df8bd1f	0.12145447
24	0xbb1e14ef	-0.0024121364
25	0x3d74d5db	0.05977426
26	0xbc079ee2	-0.008277627
27	0xbd1fc827	-0.03900924
28	0x3c05b66a	0.008161167
29	0x3dc6f57a	0.0971479
30	0x3db9a671	0.09064949
31	0x3bd97d09	0.00663722
32	0x3cb2e0e7	0.021835757
33	0x3da086ee	0.07838236
34	0x3d740afb	0.059580784
35	0xbc992742	-0.018695477
36	0x3c985f38	0.018600091
37	0x3d049649	0.032369886
38	0x3c58ce98	0.01323285
39	0x3d929d9d	0.071589686
40	0xbd561b5c	-0.052272186
41	0x3d0e7cdf	0.034787055
42	0x3d434b7b	0.047679406
43	0x3c2f19c0	0.010687292
44	0x3d0a1d1e	0.033719175
45	0xbd3b61d2	-0.045747586
46	0x3d2b83e2	0.04187382
47	0x3dc39a02	0.09550859
48	0x3ad7178e	0.0016410218
49	0x3d19ff41	0.037596945
50	0x3d4802c7	0.048830774
51	0x3b88f933	0.0041800975
52	0x3d990e02	0.07473375
53	0x3de6e3fd	0.11273954
54	0x3d0ab838	0.03386709
55	0x3c74a099	0.014930868
56	0x3ce3ec49	0.02782263
57	0x3d8faf9a	0.07015915
58	0xbc70d2c0	-0.014698684
59	0x3da0c23c	0.07849547
60	0x3d13bfbb	0.03607152
61	0xbd1ec19d	-0.038758863
62	0xbda99e53	-0.08282151
63	0x3d763457	0.06010851
64	0x3dc64c5a	0.09682532
65	0x3b7286a0	0.0037006512
66	0xbd41b40f	-0.047290858
67	0xbcba4d77	-0.022742016
68	0x3dacc683	0.084363006
69	0x3b692b74	0.0035578879
70	0x3d776e10	0.0604077
71	0xbd098e32	-0.033582874
72	0x3d381948	0.044945985
73	0xbc762b25	-0.015024935
74	0x3d490010	0.049072325
75	0x3db1f8c9	0.0869003
76	0x3ddc3624	0.10752514
77	0x3d65e160	0.056123137
78	0xbd27fe63	-0.041014086
79	0xbd72b0b9	-0.059250567
80	0xbd6f79e5	-0.058465857
81	0xbd4e1547	-0.05031326
82	0x3d886634	0.06660119
83	0x3de110a1	0.109895
84	0x3d9d1eb2	0.0767187
85	0xbbbae727	-0.005703825
86	0x3d5382cc	0.05163841
87	0x3ce63afb	0.028104296
88	0xbd83199c	-0.06401369
89	0xbdadcc20	-0.084861994
90	0xbd53adab	-0.051679295
91	0xbccbc87e	-0.024875876
92	0x3c31fe1e	0.010863809
93	0x3d928f93	0.07156291
94	0xbd4b3d03	-0.049618732
95	0x3d12f732	0.035880275
96	0xbd47e938	-0.0488064
97	0xbdca5309	-0.09879119
98	0x3db88b33	0.09010925
99	0x3c1dd4ce	0.009633256
100	0x3bb565fa	0.005535838
101	0xbda80569	-0.08204157
102	0x3db789c3	0.08961823
103	0x3da74603	0.081676506
104	0xbd043475	-0.03227659
105	0xbd6c937a	-0.057757832
106	0x3ba1bf66	0.0049361465
107	0xbd2e93ed	-0.04262154
108	0xbd350e6d	-0.04420321
109	0xbd1372f4	-0.0359983
110	0x3afde011	0.0019369145
111	0x3da27941	0.079332836
112	0x3cd9c583	0.026583439
113	0xbc2cfeee	-0.010558827
114	0x3de2e803	0.11079409
115	0xbd30d8db	-0.04317556
116	0xbc6beae1	-0.014399261
117	0x3db21151	0.08694709
118	0x3c8b8729	0.017032223
119	0xbd332b99	-0.04374275
120	0xbda97a31	-0.08275259
121	0xbd27311f	-0.04081833
122	0xbdaace28	-0.083401024
123	0xbd41e0eb	-0.04733364
124	0x3d88b894	0.066758305
125	0xbcf34a21	-0.029698433
126	0xbd1c7691	-0.03819901
127	0x3d9f7850	0.0778662

layer_norms.0.weight f4 [64]
0	0x3f7c19cd	0.9847687
1	0x3f7b82b8	0.98246336
2	0x3f8afa3a	1.0857613
3	0x3f810ad1	1.0081426
4	0x3f7ce35a	0.9878441
5	0x3f790320	0.97270393
6	0x3f7b3a00	0.98135376
7	0x3f8d4e16	1.1039455
8	0x3f766b51	0.962575
9	0x3f7e8840	0.9942665
10	0x3f7f2d15	0.99678165
11	0x3f7d5b1d	0.9896715
12	0x3f80ca85	1.0061804
13	0x3f83b8c1	1.0290757
14	0x3f7b3ffa	0.98144495
15	0x3f803828	1.0017138
16	0x3f7d938d	0.9905327
17	0x3f862db5	1.0482699
18	0x3f7a5f0c	0.9780128
19	0x3f8029b7	1.001273
20	0x3f7db69b	0.9910676
21	0x3f7ea4a5	0.9946998
22	0x3f7c9012	0.98657334
23	0x3f7dfb3d	0.99211484
24	0x3f842e2f	1.0326594
25	0x3f8042c5	1.0020376
26	0x3f7b53d0	0.9817476
27	0x3f7bdbc3	0.98382205
28	0x3f7a3499	0.9773651
29	0x3f7e7c47	0.9940838
30	0x3f7626d1	0.9615298
31	0x3f7da0a7	0.9907326
32	0x3f7c307a	0.9851147
33	0x3f7eba60	0.99503136
34	0x3f78c35b	0.9717309
35	0x3f7e77b2	0.9940139
36	0x3f8a76fc	1.0817561
37	0x3f7eefbc	0.99584556
38	0x3f7dd7cc	0.99157405
39	0x3f7ece62	0.99533665
40	0x3f7ad09a	0.9797455
41	0x3f7a125f	0.9768428
42	0x3f84ca2a	1.0374196
43	0x3f808e17	1.0043362
44	0x3f7bb47d	0.9832228
45	0x3f7d470b	0.9893653
46	0x3f85b9fc	1.0447383
47	0x3f84e2f3	1.038176
48	0x3f7c6cde	0.9860362
49	0x3f7ebade	0.99503887
50	0x3f7f3515	0.9969037
51	0x3f7e6fa3	0.99389094
52	0x3f7c30b8	0.9851184
53	0x3f7e5f8e	0.99364555
54	0x3f7bfe5a	0.98434985
55	0x3f7ddf4c	0.9916885
56	0x3f7b936e	0.98271835
57	0x3f78beec	0.97166324
58	0x3f7a30cd	0.97730714
59	0x3f7d4b21	0.9894276
60	0x3f7c3d90	0.98531437
61	0x3f8937bc	1.0720134
62	0x3f79b553	0.97542304
63	0x3f7dcc9a	0.9914032

layer_norms.0.bias f4 [64]
0	0xbc194914	-0.009355802
1	0xbcc6d3d2	-0.024270926
2	0x3baa7452	0.0052018547
3	0xbba34e92	-0.0049837315
4	0xbc2b2615	-0.010446091
5	0xbcba6f7a	-0.022758234
6	0xba639e4d	-0.00086829514
7	0x3c230828	0.009950675
8	0xbcdc04ff	-0.026857851
9	0xbc410941	-0.011781991
10	0x3b2c8fda	0.002633086
11	0xbc3361fa	-0.010948652
12	0xbc03444c	-0.008011889
13	0xbc3ad6fa	-0.0114037935
14	0xbc145335	-0.009053041
15	0xbc57fbef	-0.013182624
16	0xbc236e4b	-0.009975026
17	0x3c4c20f5	0.012459029
18	0xbcb53b29	-0.022122936
19	0xbc761663	-0.015019986
20	0xbc42129f	-0.01184526
21	0xbbd16b74	-0.0063909832
22	0xbba28d83	-0.004960717
23	0xbc77fa47	-0.015135354
24	0xbbc43b17	-0.0059884894
25	0xbba474f6	-0.0050188256
26	0xbce8541f	-0.028360425
27	0xbc0f0995	-0.008730312
28	0xbc54ee83	-0.012996319
29	0xbc1153fc	-0.008870121
30	0xbcb2cb13	-0.021825349
31	0xbbcfdee3	-0.006343709
32	0xbc70c539	-0.014695459
33	0xbbdf28da	-0.00681029
34	0xbc82a522	-0.015947882
35	0xbba4370e	-0.005011446
36	0x3bfbc6e7	0.007683623
37	0xbc7967af	-0.015222474
38	0xbc0e2583	-0.008675936
39	0xbc0e4668	-0.008683778
40	0xbcd7e33c	-0.026353471
41	0xbc9d1d74	-0.019179083
42	0x3c20c120	0.00981167
43	0x3be57879	0.007002887
44	0xbc5a0b50	-0.013308361
45	0xbaf03fcf	-0.0018329563
46	0x3ba3f4e5	0.005003559
47	0xbc77cbc2	-0.015124263
48	0xbc45640f	-0.012047782
49	0xbb91edef	-0.0044534127
50	0xbc3e4640	-0.011613429
51	0xbcd49b0e	-0.025952842
52	0x39c4d3e4	0.00037541904
53	0xbbcc98f8	-0.0062438212
54	0xbc1f6c23	-0.009730372
55	0xbc6f262e	-0.014596505
56	0xbc91e4b5	-0.017809251
57	0xbc7736a4	-0.015088711
58	0xbccaee00	-0.02477169
59	0xbc43424e	-0.011917664
60	0xbc90dac7	-0.017682446
61	0xbc0066ea	-0.007837037
62	0xbcef9e38	-0.02925025
63	0xbbb6ab9c	-0.0055746567

layer_norms.1.weight f4 [64]
0	0x3f7b3b19	0.9813705
1	0x3f7c27e8	0.9849839
2	0x3f856727	1.0422105
3	0x3f7cbdf9	0.98727375
4	0x3f7d1758	0.98863745
5	0x3f7b69d7	0.98208374
6	0x3f8b4a39	1.0882026
7	0x3f7a85f6	0.9786066
8	0x3f7a7da8	0.97847986
9	0x3f7ec558	0.9951987
10	0x3f816607	1.0109261
11	0x3f7c11fb	0.98464936
12	0x3f7c8d55	0.98653156
13	0x3f7b5b00	0.9818573
14	0x3f8a226f	1.0791758
15	0x3f7bf3b2	0.98418725
16	0x3f7dc6e7	0.99131626
17	0x3f7dd4f9	0.99153095
18	0x3f7d74da	0.99006426
19	0x3f798a4b	0.97476643
20	0x3f79c8d1	0.97572047
21	0x3f7d29fa	0.98892176
22	0x3f7e50e8	0.99342203
23	0x3f7d825e	0.9902705
24	0x3f7d8fd9	0.9904762
25	0x3f8a7d32	1.0819457
26	0x3f7c0b2a	0.98454535
27	0x3f7e0293	0.9922268
28	0x3f7c248f	0.98493284
29	0x3f7dfb97	0.9921202
30	0x3f8d0527	1.1017197
31	0x3f865667	1.0495118
32	0x3f8b9f53	1.0907997
33	0x3f7ea5be	0.9947165
34	0x3f7cafff	0.9870605
35	0x3f7f6ff4	0.997802
36	0x3f8c3525	1.0953718
37	0x3f7facf1	0.9987326
38	0x3f8b4555	1.0880533
39	0x3f7caad7	0.9869818
40	0x3f810781	1.0080415
41	0x3f770a2f	0.96499914
42	0x3f7e0907	0.99232525
43	0x3f88b1dc	1.0679278
44	0x3f804060	1.0019646
45	0x3f7cd0b0	0.9875593
46	0x3f7d759f	0.990076
47	0x3f7f7f59	0.9980369
48	0x3f867a53	1.050608
49	0x3f805866	1.0026977
50	0x3f7cf194	0.9880612
51	0x3f8241da	1.0176346
52	0x3f7ecf9d	0.9953554
53	0x3f7d1585	0.9886096
54	0x3f8553b1	1.0416166
55	0x3f866354	1.0499063
56	0x3f80b020	1.0053749
57	0x3f85218c	1.0400863
58	0x3f7ac7b9	0.97961
59	0x3f7b5137	0.981708
60	0x3f7399a6	0.95156324
61	0x3f798351	0.97466
62	0x3f81c849	1.0139247
63	0x3f80a229	1.0049487
